1094107_1dconv_reg.pt (torch_old, 52282 bytes, 5 tensors)

weight f4 [64, 8, 1]
0	0xbf361de3	-0.71139354
1	0xbf9d199c	-1.227344
2	0x3ca52625	0.02015979
3	0xbc54c87e	-0.012987254
4	0x3e888278	0.2666204
5	0x3a9bd4a0	0.0011888929
6	0xbe8e4bd3	-0.27792224
7	0x414b16f6	12.693106
8	0xbeea1e34	-0.45726168
9	0xbf371ce6	-0.7152847
10	0x3fae8b3b	1.363624
11	0x3cd7d81d	0.026348168
12	0xbdb27927	-0.08714514
13	0x3e1f9b46	0.15586576
14	0xbe7cb9d4	-0.24680263
15	0x415525bf	13.321715
16	0x3e6e384a	0.2326366
17	0xbe80661d	-0.25077906
18	0x3cb3caa0	0.021947205
19	0xbe1fc158	-0.15601099
20	0xbc09fec0	-0.008422554
21	0xbe824b03	-0.25447854
22	0xbe1186b2	-0.14211538
23	0xbe91eda2	-0.28501612
24	0xbfd5e7dd	-1.6711384
25	0x3f1de25a	0.6167351
26	0xc0544ed4	-3.3173113
27	0xbecf0440	-0.4043293
28	0x3f5c6c02	0.86102307
29	0x3eff9b2e	0.4992308
30	0xbe140ed7	-0.14458786
31	0x40557462	3.3352284
32	0xbf4306ac	-0.76182055
33	0xbf76f3a0	-0.9646549
34	0x3f5cf773	0.8631508
35	0x3d4bcfe5	0.04975881
36	0xbe84b735	-0.25921026
37	0xbbb669f6	-0.0055668307
38	0x3e1abc78	0.15110958
39	0x41497b32	12.592577
40	0xbf89b695	-1.0758845
41	0x3fa9cd22	1.3265727
42	0x3fbe0d0f	1.4847735
43	0x3ebbc672	0.3667484
44	0x3d995655	0.0748717
45	0x3ec1ef35	0.37877813
46	0x3f12cbfd	0.5734251
47	0xbf234990	-0.6378412
48	0xbf9b03d8	-1.2110548
49	0x4032c6ef	2.793392
50	0x3ffff93b	1.9997934
51	0x3ec44439	0.383333
52	0x3f12d509	0.57356316
53	0x3ee370f0	0.44422102
54	0x3ed20369	0.41018227
55	0xc1017e27	-8.093299
56	0x3e8b2c09	0.27182034
57	0xbe70e87c	-0.23526186
58	0xbdd66010	-0.10467541
59	0xbe2a6ffb	-0.1664428
60	0xbdeff02e	-0.117157325
61	0xbe88b65c	-0.2670163
62	0x3e9bff5f	0.3046827
63	0x3e992287	0.29909155
64	0xbf4c50b7	-0.7981066
65	0xbf4a116d	-0.7893284
66	0x3fb89447	1.4420251
67	0xbe2289e5	-0.15872915
68	0x3eb8d740	0.36101723
69	0x3cd9d0b9	0.026588785
70	0x3e81d756	0.253596
71	0x413bfbd2	11.74898
72	0x3e4daa0c	0.20084399
73	0xbfe0d2b1	-1.7564298
74	0x3fdc16e7	1.7194489
75	0x3da3e090	0.08001816
76	0xbe232017	-0.1593021
77	0xbe9c91b7	-0.30579922
78	0x3ee74f77	0.45177814
79	0x414e3fcd	12.890576
80	0xbf8463a4	-1.0342908
81	0xbf813501	-1.00943
82	0x3f4ff1eb	0.8122851
83	0x3ca39933	0.019970512
84	0xbd5b8780	-0.05359602
85	0xbd2f923f	-0.04286408
86	0x3e812769	0.2522538
87	0x413e9f5e	11.913908
88	0xbfa06cd4	-1.2533212
89	0x3fcaf7f7	1.5856923
90	0x4031a5d8	2.7757473
91	0x3efb3914	0.49066985
92	0xbbc4a5de	-0.006001218
93	0x3d76abcc	0.060222432
94	0x3f2c0ecc	0.6721008
95	0xbce62f6b	-0.028098783
96	0x3ea09801	0.3136597
97	0x3dfc0654	0.123058945
98	0x3e931919	0.28730085
99	0xbe448098	-0.1918968
100	0xbe8556f0	-0.2604289
101	0xbdf9224a	-0.12164743
102	0x3dc30084	0.09521583
103	0xbe0ce6e0	-0.13759947
104	0x3cf1afd0	0.02950278
105	0xbde939e8	-0.11387998
106	0x3ca210e0	0.019783437
107	0xbdb208a8	-0.08693057
108	0xbe5363d5	-0.20643552
109	0xbcd1d330	-0.025613397
110	0xbe54d4b3	-0.20784263
111	0xbe91f6aa	-0.28508502
112	0x3ef19286	0.471821
113	0xbfcd5f31	-1.6044675
114	0x3fc85d8d	1.565355
115	0x3b5f758b	0.003409716
116	0x3de66d6e	0.11251341
117	0xbdb61b73	-0.08891954
118	0x3dda4d22	0.10659243
119	0x41559706	13.349371
120	0xbd1d5949	-0.038415227
121	0xbf262ad4	-0.649091
122	0xbfcc0c1c	-1.5941195
123	0xbe750331	-0.23926999
124	0x3f3992b5	0.7248948
125	0x3eb6ea4b	0.35725626
126	0x3e54ed44	0.20793635
127	0x41288b00	10.533936
128	0xbe8e6729	-0.2781308
129	0xbf87935c	-1.0591846
130	0xbe8173ba	-0.25283605
131	0x3e6b8c10	0.23002648
132	0x3eeec7c4	0.46636784
133	0xbf3e21e7	-0.7427048
134	0x3ef3be73	0.4760624
135	0x415215c0	13.13031
136	0x3e51b304	0.20478445
137	0xbf8c4103	-1.095734
138	0xbeb1f267	-0.3475525
139	0xbeca5af7	-0.39522526
140	0xbfb951dd	-1.4478108
141	0xbef6e809	-0.48223904
142	0xbf323e3e	-0.69626224
143	0x40cddda7	6.433307
144	0xbe699160	-0.22809362
145	0xbf2f822c	-0.68558
146	0x3fd46704	1.6593938
147	0x3e197811	0.14987208
148	0xbefe58fa	-0.4967726
149	0x3e58a151	0.21155287
150	0xbe26afab	-0.1627795
151	0x4147f535	12.497365
152	0x3dae12c8	0.08499676
153	0xbddb492a	-0.10707314
154	0xbeb27075	-0.34851423
155	0xbeac8f63	-0.33703145
156	0x3eaad7ad	0.33367673
157	0xbe0e32a7	-0.1388651
158	0x3e67067e	0.2256107
159	0xbc841150	-0.016121536
160	0xbec64523	-0.38724622
161	0xbfae085d	-1.3596302
162	0x3f16063b	0.58603257
163	0xbb5f2f37	-0.0034055242
164	0xbd34332b	-0.04399411
165	0x3c01a6c6	0.007913297
166	0x3d291c66	0.04128685
167	0x41455869	12.3340845
168	0x3e15a747	0.14614592
169	0xc0099158	-2.149496
170	0x40076686	2.1156325
171	0x3daee5ff	0.08539962
172	0xbe1d9c9a	-0.1539177
173	0xbe9b81aa	-0.30372363
174	0x3ed78f98	0.4210174
175	0x41482648	12.509346
176	0xc00ea33e	-2.2287135
177	0x4014bf6b	2.3241832
178	0x4097c134	4.7423344
179	0x3d86af31	0.06576384
180	0xbdad266f	-0.08454596
181	0x3ded499b	0.11586305
182	0x3ea1f49e	0.3163194
183	0xc018093f	-2.3755643
184	0xbf841aac	-1.032064
185	0x3fb127cc	1.384027
186	0x4005bbdd	2.0895913
187	0x3eb9d3bb	0.3629435
188	0x3e51908e	0.204653
189	0xbea35507	-0.31900808
190	0x3f4b9421	0.795229
191	0xbe518fed	-0.2046506
192	0xbfd54ccc	-1.6664062
193	0xbefe4968	-0.4966538
194	0x3f135d7e	0.5756453
195	0xbd9b1331	-0.0757202
196	0xbbdff06f	-0.006834082
197	0x3d89a758	0.067213714
198	0xbdcda11f	-0.10040497
199	0x413e021c	11.875515
200	0x3e1e86e8	0.1548115
201	0xbf9241cf	-1.1426333
202	0xbf228e56	-0.6349844
203	0xbedf0903	-0.43561563
204	0xbfbeb92a	-1.4900258
205	0xbdefa64f	-0.11701643
206	0xbf3b66c0	-0.7320366
207	0x40dae46f	6.840385
208	0x3d6d68a0	0.057961106
209	0x3e8311e1	0.25599578
210	0xbe27b287	-0.16376697
211	0xbe1e7c68	-0.15477145
212	0x3e79683e	0.24356171
213	0xbe8cbec5	-0.27489296
214	0x3e201302	0.15632251
215	0x3d052f98	0.032516092
216	0x3f28a0da	0.6587044
217	0xc003d040	-2.0595856
218	0x3fff5848	1.9948816
219	0x3e1298de	0.14316127
220	0xbecbba8e	-0.39790767
221	0xbe4199c0	-0.18906307
222	0x3ed9ce35	0.42540136
223	0x4142c861	12.173921
224	0xbfc34fa9	-1.5258685
225	0x400e4525	2.2229702
226	0x4019284b	2.3930843
227	0x3f138c79	0.5763622
228	0x3dc74879	0.0973062
229	0x3cb184a4	0.021669693
230	0x3ea399fa	0.31953412
231	0xc065a24c	-3.5880308
232	0xbf7372ce	-0.95097053
233	0xbeffaaee	-0.49935097
234	0x3f488042	0.78320706
235	0x3ca6d9b6	0.020367485
236	0xbd3cdb95	-0.046107847
237	0x3c00eb04	0.007868532
238	0xbd96506e	-0.073395595
239	0x414941c0	12.578552
240	0xbea6df10	-0.32592058
241	0xbed1a841	-0.4094868
242	0x3fc191de	1.512264
243	0x3e8db488	0.27676797
244	0xbfa31766	-1.2741516
245	0xbe37357f	-0.17891501
246	0xbf2ceb8c	-0.67546916
247	0x4173951d	15.223905
248	0xbfdacf24	-1.7094464
249	0x4039025a	2.8907685
250	0x407708aa	3.8599038
251	0xbd9149e9	-0.07094175
252	0xbeb7fb66	-0.3593399
253	0x3e34384e	0.17599604
254	0xbe12c173	-0.14331608
255	0xc0ad552d	-5.4166474

bias f4 [64]
0	0xbf321cdd	-0.6957529
1	0xbe0005ff	-0.12502287
2	0xbe4d4adf	-0.20048092
3	0x3f70c203	0.9404604
4	0xbe1abcea	-0.15111127
5	0x3ff47d3c	1.9100718
6	0x402c670b	2.6937892
7	0x3de5ecc4	0.112268
8	0xbe5bbe40	-0.21459293
9	0xbf1b0be3	-0.6056501
10	0xbe13d085	-0.14435013
11	0x400fa6e5	2.2445614
12	0x3e452706	0.19253168
13	0x3deaf178	0.11471838
14	0xbf34c394	-0.7061093
15	0xbf1e78ae	-0.6190289
16	0xbeb4dc11	-0.35324147
17	0xbf2e6940	-0.6812935
18	0xbddf5600	-0.10905075
19	0xbe1f68cd	-0.15567322
20	0xbe1b4814	-0.15164214
21	0xbf4e83f1	-0.80670077
22	0x4022e3c1	2.545151
23	0x40032f61	2.0497668
24	0x3f3b8e06	0.73263586
25	0xbec6c4a0	-0.38821888
26	0x3ea64e3f	0.32481572
27	0xbf80fb71	-1.0076734
28	0x3fff14c2	1.992821
29	0x3e891a14	0.2677771
30	0x3f3d9b86	0.74065435
31	0x404a2530	3.1585197
32	0xbfa7cb87	-1.3108987
33	0x3fa6e76e	1.3039377
34	0x3fd75bab	1.682485
35	0xbe9d24a4	-0.30692017
36	0xbe628504	-0.22121054
37	0xbf9c579a	-1.2214234
38	0x3e534578	0.20631969
39	0xbcbb1578	-0.022837386
40	0x3dbe4ee8	0.09292394
41	0xbe2fbed6	-0.17162642
42	0xbf683167	-0.9070038
43	0x3e1cb7f9	0.15304555
44	0x3e8b997c	0.27265537
45	0xbfa137a3	-1.2595104
46	0xbf29ef8c	-0.66381145
47	0xbe600369	-0.21876301
48	0xbe78cdfe	-0.2429733
49	0xbf7fefdf	-0.9997539
50	0x3e860981	0.26179126
51	0xbedc59e3	-0.43037328
52	0xbf9ca68d	-1.2238327
53	0xbe073722	-0.13204625
54	0xbe2a33a8	-0.16621268
55	0x3f104bc7	0.5636563
56	0x40070c7d	2.1101372
57	0x3dae5ccd	0.08513794
58	0xbf4f09d9	-0.808744
59	0x3e93666c	0.2878908
60	0xbe9acdea	-0.30235225
61	0xbd69f4e6	-0.05711832
62	0xbf45c648	-0.7725568
63	0xbfc7dd36	-1.5614383

weight f4 [128, 64, 1]
0	0xbfab3107	-1.3374337
1	0xbf686e43	-0.90793246
2	0x3cfacd60	0.030615509
3	0x3f562015	0.83642703
4	0xbf645b82	-0.8920213
5	0x3ece9c71	0.4035373
6	0x3f0ff9ed	0.5624073
7	0x3dec9636	0.11552088
8	0x3e006b0d	0.12540837
9	0x3fa4b7d9	1.2868606
10	0xbf1c928d	-0.6116112
11	0x3e98653a	0.2976473
12	0xbde125e6	-0.10993557
13	0x3d58a6e8	0.05289355
14	0xbff4d462	-1.9127314
15	0x3ef7991f	0.4835901
16	0x3fc496e6	1.535855
17	0x3f5258c2	0.82166684
18	0xbf4d4620	-0.8018513
19	0x3d8a70c0	0.067597866
20	0xbfd5b59b	-1.6696047
21	0x3f96ea12	1.1790183
22	0x3cd4ad89	0.025961654
23	0x3e8cee85	0.27525726
24	0xbf8c700b	-1.0971693
25	0x3efb55d2	0.49088913
26	0xbd7b7cf4	-0.06139846
27	0x3f0795ac	0.52962756
28	0x3e8f1ede	0.27953237
29	0xbf95f52b	-1.1715444
30	0x3fa8d3e9	1.318967
31	0x3f4277d0	0.7596407
32	0x3e6e831c	0.23292202
33	0x3fd7760d	1.6832901
34	0x3ee2382f	0.4418349
35	0xbfdf86e7	-1.7463044
36	0xbf6c1be6	-0.9223007
37	0x3f98ab93	1.192736
38	0xbfbc2643	-1.4699177
39	0xbfa8be57	-1.3183087
40	0xbde1094c	-0.10988101
41	0xbffd2acb	-1.9778684
42	0x3f7fdcdf	0.999464
43	0xbf00a0d2	-0.5024539
44	0x3decac3a	0.11556287
45	0x3fcfc988	1.6233377
46	0xbf952c68	-1.1654177
47	0xbf703bca	-0.9384123
48	0xc012b481	-2.292267
49	0x406a5c27	3.6618745
50	0xbb603640	-0.0034212023
51	0xbfce989a	-1.614032
52	0x3e412618	0.18862188
53	0xbf130e0f	-0.57443327
54	0x3d9dc588	0.07703692
55	0x3fcab646	1.5836875
56	0xbe8e5c9b	-0.27805027
57	0xbf684352	-0.9072772
58	0x3ddd0d99	0.10793609
59	0xbf83d836	-1.0300357
60	0xbc892938	-0.016743287
61	0xbf5b5a3f	-0.8568458
62	0xbdc5b006	-0.096527144
63	0x3f46c646	0.7764629
64	0x3f5bd97a	0.8587872
65	0x3f11d0d2	0.5695926
66	0x3d8715a0	0.065959215
67	0xbe96479f	-0.29351518
68	0x3f24e308	0.6440892
69	0x3e25b444	0.16182047
70	0xbe639667	-0.22225343
71	0xbd2aada0	-0.041669488
72	0x3f50aba5	0.8151191
73	0x3f551006	0.83227575
74	0x3fc161e8	1.5108004
75	0x3dcb0d00	0.09914589
76	0xbc8079d8	-0.0156831
77	0xbd02d960	-0.031945586
78	0x4004eaec	2.0768385
79	0x3ee7417b	0.45167145
80	0x3d64a03f	0.055816885
81	0x3fb55c45	1.4168783
82	0x3ec0032f	0.3750243
83	0xbb1c2e80	-0.0023831427
84	0x3fad9ea2	1.3564036
85	0x3fa0869b	1.2541078
86	0x3d404bab	0.046947163
87	0x3e17b1f4	0.14813977
88	0x3f6fb355	0.93633014
89	0x3ed75a36	0.42061013
90	0x3d199268	0.03749314
91	0x3fbca1e4	1.4736905
92	0xbcc158de	-0.023601945
93	0x3f2633dd	0.6492289
94	0xbf87e108	-1.0615549
95	0xbf989aec	-1.1922278
96	0x3f54e301	0.8315888
97	0xbd3e2a4c	-0.046427056
98	0xbd9c67a6	-0.07636957
99	0x3f76ef40	0.96458817
100	0x3f1dfd7c	0.6171491
101	0x3fc5c512	1.5450766
102	0x3f9c9197	1.223193
103	0x3f56ed2a	0.83955634
104	0xbdf9aaf6	-0.12190811
105	0x3fd7e24e	1.6865938
106	0x3e265b8b	0.16245858
107	0x3f422dd9	0.7585121
108	0x3fc767d5	1.5578562
109	0x3ef2eae6	0.47444838
110	0x3ff00b96	1.8753536
111	0x3edd3b2c	0.43209207
112	0x40024eae	2.0360522
113	0xc0cd1c30	-6.409691
114	0x3c5b6490	0.013390675
115	0x3fd03f25	1.626927
116	0x3fbe64ce	1.4874513
117	0x3f2398d3	0.63905066
118	0x3e8b18d3	0.27167377
119	0x3fdec36c	1.7403388
120	0x3e41a47d	0.18910404
121	0x3f89c07d	1.0761868
122	0x3f844150	1.0332432
123	0x3f34dae8	0.70646524
124	0xbc3224c0	-0.01087302
125	0x3faaa725	1.3332258
126	0x3c6ee9bd	0.014582095
127	0x3e87f5aa	0.26554614
128	0xbfcf6acf	-1.620447
129	0xbf9920ef	-1.1963176
130	0xbded939e	-0.11600421
131	0x3eb3db1e	0.3512811
132	0xbf86f0c7	-1.054223
133	0x3ec40bbd	0.38290206
134	0x3f337f03	0.7011568
135	0xbdca4bae	-0.09877716
136	0xbe44dacb	-0.19224088
137	0x3ee2aca7	0.44272348
138	0xbf0d8846	-0.5528606
139	0x3eeb2eb0	0.45934057
140	0xbd886dcc	-0.06661567
141	0x3d362da8	0.044477135
142	0xc064a7b3	-3.5727355
143	0x3c21cf60	0.009876102
144	0x3fae3e66	1.3612792
145	0x3ee184ca	0.44046623
146	0xbf9567a3	-1.1672252
147	0x3dcda22e	0.10040699
148	0xc01b9f4a	-2.4315972
149	0x3e0203b5	0.12696727
150	0x3e87b60b	0.26506075
151	0x3ede5917	0.43427345
152	0xbf80f46d	-1.0074593
153	0xbe2ef9ab	-0.17087428
154	0xbd471060	-0.0485996
155	0xbe69fc06	-0.22850046
156	0x3f141c6c	0.5785587
157	0xbfba047f	-1.4532622
158	0xbf3d8494	-0.74030423
159	0x3ff12d55	1.8841959
160	0x3db5746b	0.088600956
161	0x3f9f03b2	1.2423003
162	0x3ef7051c	0.48246086
163	0xbfffc716	-1.9982631
164	0xbf8b2aa1	-1.0872384
165	0x3e2a04c2	0.16603377
166	0xbfe02d02	-1.7513735
167	0xbfd41ac8	-1.6570673
168	0x3cae1120	0.0212484
169	0xc0197b50	-2.3981514
170	0x3e781e77	0.24230371
171	0xbef902cd	-0.4863495
172	0x3d82398f	0.06358635
173	0x3f63301c	0.88745284
174	0xbfb0f3c4	-1.3824391
175	0xbf8ef23e	-1.1167676
176	0xc037b04e	-2.8701358
177	0xbeee41ea	-0.46534663
178	0xbd431c24	-0.04763426
179	0xbfe0c02a	-1.7558644
180	0xbece8da9	-0.40342453
181	0xbf5b2f37	-0.8561892
182	0x3e9dd722	0.30828196
183	0x3fe0e1a4	1.756886
184	0xbe35b848	-0.17746079
185	0xbf9afc2d	-1.2108208
186	0xbf739f04	-0.95164514
187	0xbfb2767d	-1.394241
188	0xbda3e006	-0.080017135
189	0xbf9f0ae6	-1.2425201
190	0xbdecae73	-0.11556711
191	0xbe27d253	-0.16388826
192	0x3f53c4e9	0.82722336
193	0x3f0a4585	0.5401233
194	0xbda5abd4	-0.08089414
195	0xbed395ed	-0.41325322
196	0x3f0b2ce5	0.5436538
197	0x3e026101	0.12732317
198	0xbde3af5e	-0.11117433
199	0xbdc4b09c	-0.09603998
200	0x3f5923d5	0.848203
201	0x3f32edd5	0.6989415
202	0x3fb49ba6	1.411
203	0x3dd1d8dd	0.102464415
204	0x3d9e849c	0.07740137
205	0x3d59269c	0.053015336
206	0x400e8a97	2.2272089
207	0x3eb1832a	0.34670383
208	0x3d5c1296	0.053728662
209	0x3f9e5ecd	1.2372681
210	0x3f065e9f	0.5248813
211	0x3d2ec740	0.04267049
212	0x3fa34764	1.2756162
213	0x3fa2626d	1.2686287
214	0xbdf57507	-0.11985212
215	0x3e9ca12c	0.30591714
216	0x3f6b53fd	0.9192503
217	0x3ef64155	0.4809672
218	0x3bf9eba0	0.0076269656
219	0x3fc0042c	1.5001273
220	0x3cc0be9b	0.023528388
221	0x3efb40e9	0.4907296
222	0xbf5b92c8	-0.85770845
223	0xbfad9237	-1.3560246
224	0x3f662e30	0.89914227
225	0x3d0978e0	0.03356254
226	0x3d2a6f4d	0.04161005
227	0x3f8bc2fe	1.0918882
228	0x3f462f40	0.7741585
229	0x3fbcd3d5	1.4752146
230	0x3fa6472c	1.299047
231	0x3f8006f1	1.0002118
232	0x3df37898	0.11888236
233	0x3fd30764	1.648663
234	0x3e8b199a	0.2716797
235	0x3f2a925a	0.66629565
236	0x3fd6d661	1.6784173
237	0x3e9250ec	0.28577363
238	0x3ff43e7f	1.9081572
239	0x3f11c5b3	0.5694229
240	0x40036f1b	2.0536563
241	0xc0caee49	-6.3415875
242	0xbdbd9884	-0.09257606
243	0x3fd71aec	1.6805091
244	0x3fbd4fee	1.4790018
245	0x3f15f578	0.5857768
246	0x3e872d4d	0.2640175
247	0x3fed7546	1.8551414
248	0x3d638aff	0.05555248
249	0x3f5c075c	0.8594873
250	0x3f971877	1.1804341
251	0x3f2af2c3	0.66776675
252	0x3da033f6	0.07822411
253	0x3fbd31c5	1.4780813
254	0xbd762059	-0.060089443
255	0x3ed1157a	0.40836698

bias f4 [128]
0	0x3f850ce7	1.0394562
1	0x3d1b45ef	0.03790849
2	0x3fbd4980	1.4788055
3	0xbc94fad4	-0.01818601
4	0xbdb43e5a	-0.08800955
5	0x40166c6f	2.3503683
6	0xbd587975	-0.052850205
7	0xbf4f48c2	-0.80970395
8	0x3d9064d7	0.07050484
9	0x3dbb0be0	0.09133124
10	0x3e182b78	0.14860332
11	0x400473ca	2.0695672
12	0x3dc59b3c	0.09648749
13	0x3cebc31a	0.028779555
14	0x3d183bae	0.03716629
15	0x3ffb950e	1.9654863
16	0xbd323473	-0.04350705
17	0x3d9d1bd1	0.07671321
18	0x3dca4570	0.098765254
19	0x3bb4a2a0	0.0055125505
20	0xbfc9302b	-1.5717825
21	0xbf2c3525	-0.6726859
22	0xbc8e776b	-0.017390927
23	0x3ce2108a	0.027595777
24	0x3e067835	0.13131793
25	0x3df992a0	0.121861696
26	0xbd00a240	-0.031404734
27	0xbc8aadc7	-0.016928567
28	0xbcc74a7f	-0.024327515
29	0x3f97790f	1.1833819
30	0x3c8b14a2	0.016977612
31	0x3d1a9620	0.037740827
32	0x3d44fd59	0.048093174
33	0x3d940a16	0.07228486
34	0x3f8a4876	1.0803363
35	0x3d3bffb2	0.045898147
36	0xbd3abc82	-0.04558993
37	0x3e0d6acc	0.13810271
38	0xbfbac2cb	-1.4590696
39	0x3f9a9265	1.2075926
40	0xbf980360	-1.187603
41	0xbd9a7494	-0.07541767
42	0xbc5e4e08	-0.013568409
43	0x3d24af60	0.040206313
44	0xbd029644	-0.031881586
45	0x3f3353ce	0.7004975
46	0x3db2fe39	0.087398954
47	0x3fc943af	1.572378
48	0x3d10e5f2	0.035375543
49	0xbc7c1f42	-0.015388312
50	0x3f178af2	0.5919639
51	0xbd6e7aad	-0.05822246
52	0xbc1787e0	-0.009248704
53	0x400dd053	2.21584
54	0x3f91f075	1.1401507
55	0xbda59743	-0.080854915
56	0x3d440129	0.04785267
57	0x3f3fd483	0.7493364
58	0x3da66ab1	0.081258185
59	0xbd7530f9	-0.059861157
60	0x3cca1e42	0.024672631
61	0xbdc7ded9	-0.09759302
62	0x3d677d5c	0.056516036
63	0x3fee0223	1.8594402
64	0xbd74b76f	-0.05974525
65	0xbd7d63dc	-0.06186281
66	0x3ce28665	0.027651975
67	0x3f3e1c87	0.7426228
68	0x3e3f9f6e	0.18713161
69	0x3d05c55a	0.032658912
70	0xbd9746e7	-0.073865704
71	0x3da79978	0.08183569
72	0xbd06d783	-0.03292037
73	0x3df93c26	0.121696755
74	0xbc8ded16	-0.017324965
75	0x3d7deabc	0.06199144
76	0x3dde2c3d	0.108482815
77	0x3dd62c58	0.10457677
78	0x3f7ed4af	0.9954328
79	0x3e62751e	0.22114989
80	0xbc6ce240	-0.014458239
81	0x3d55bb22	0.052180417
82	0x3d098b17	0.033579912
83	0xbf9639c8	-1.1736383
84	0x3e31215a	0.17297879
85	0xbe1071b8	-0.1410588
86	0xbd482589	-0.04886392
87	0x3fe480b1	1.7851774
88	0x3d21ef8a	0.039535083
89	0xbc1237ee	-0.0089244675
90	0x3dadced3	0.08486714
91	0x3b976e15	0.004621277
92	0x3e35f2c1	0.17768385
93	0xbdc4946f	-0.09598624
94	0xbcafd0b9	-0.021461831
95	0xbd7e18e0	-0.06203544
96	0x3e3787f0	0.1792295
97	0x3d6691bc	0.056291327
98	0x3d81e094	0.06341663
99	0xbd9e7c39	-0.07738537
100	0xbdb5b44e	-0.08872281
101	0x3d985550	0.07438147
102	0xba59a336	-0.00083022134
103	0x3d535b14	0.05160053
104	0xbd74f738	-0.05980608
105	0x3d8dd78c	0.06925878
106	0x3f99347c	1.1969142
107	0xbe029d95	-0.12755425
108	0x3e089baf	0.13340639
109	0x3d224e64	0.03962554
110	0x3f8ac6c0	1.0841904
111	0x3e0d1aad	0.13779707
112	0x40135682	2.302155
113	0x3e2ba8e2	0.16763642
114	0x3f51daae	0.81974304
115	0xbc1386c3	-0.009004298
116	0xc0170e75	-2.3602574
117	0x3f7e1075	0.9924386
118	0xbd798e5a	-0.060926773
119	0xbdbd3540	-0.09238672
120	0x3fa140af	1.2597865
121	0x3b6278bc	0.0034556827
122	0xbcfbde6f	-0.030745713
123	0x3d292559	0.041295383
124	0x3dc50662	0.09620358
125	0x3a960dea	0.0011448239
126	0x3f6f7eda	0.93552935
127	0x3e2e30ff	0.17010878

weight f4 [1, 128]
0	0xc0066b53	-2.1003006
1	0x3f99501c	1.1977572
2	0xc01be314	-2.4357347
3	0x3f85f701	1.0466005
4	0x3b09ea20	0.002104409
5	0xc0b70f27	-5.7205997
6	0x3f9454bc	1.1588359
7	0x40827f79	4.0780606
8	0x3f978658	1.1837873
9	0xbd2f28d8	-0.04276356
10	0x3f89b449	1.0758144
11	0xc0e4d431	-7.1509023
12	0x3f84258f	1.0323962
13	0x3f971f41	1.1806413
14	0xbd8b1db6	-0.06792776
15	0xc0c03e0c	-6.007574
16	0x3f99c292	1.2012503
17	0xbc8116d4	-0.015757956
18	0x3fb7b04a	1.4350674
19	0x3f8d8726	1.1056869
20	0x40aa8b0f	5.329475
21	0x4048d54d	3.1380188
22	0xbbf66dff	-0.007520437
23	0xbce17aa3	-0.027524298
24	0x3f9cc9be	1.2249067
25	0x3cb801a8	0.022461727
26	0x3f84081b	1.0314974
27	0xbd162d85	-0.036664505
28	0x3f8abaab	1.0838217
29	0xc007e1da	-2.12316
30	0x3fac3df9	1.3456413
31	0x3f8f7340	1.1207047
32	0x3f8933cb	1.0718931
33	0x3f97a04c	1.1845794
34	0xc0084860	-2.1294174
35	0x3f92322a	1.1421559
36	0x3f8b676a	1.0890934
37	0x3f9b02e9	1.2110263
38	0x40a9752f	5.2955546
39	0xc00a3802	-2.1596684
40	0x40ad775d	5.4208207
41	0xbbac5e2d	-0.00526025
42	0xbca8e602	-0.020617489
43	0x3f9d4bc6	1.2288749
44	0xbd2e9431	-0.042621795
45	0xc003e2cf	-2.0607183
46	0x3f892c57	1.0716656
47	0xc0e63bc3	-7.194795
48	0xbcfc039c	-0.03076344
49	0xbcfddd4b	-0.03098931
50	0xc00d4ea8	-2.2079258
51	0x3f84ad7f	1.0365447
52	0x3f8b72ec	1.0894446
53	0x40dc817f	6.8908076
54	0xc00e8ae0	-2.2272263
55	0xbc0faccc	-0.008769225
56	0xbd60c40a	-0.054874457
57	0xc001aaa3	-2.0260398
58	0x3f8d5fe7	1.1044892
59	0x3f93ce6f	1.1547374
60	0x3f95538c	1.1666121
61	0xbd89c0d2	-0.06726231
62	0x3f839dab	1.0282491
63	0xc0d1f3b7	-6.5610003
64	0x3f902530	1.1261349
65	0x3f8e0662	1.1095698
66	0x3f9d52f3	1.2290939
67	0xbff79741	-1.9343034
68	0x3f8b3dbb	1.0878214
69	0xbd1e8e9c	-0.03871022
70	0x3f9c28d5	1.2199961
71	0x3f879f2b	1.0595449
72	0x3f8ffc6d	1.1248909
73	0x3f8dbace	1.1072633
74	0x3f9218cf	1.1413821
75	0x3f98980d	1.1921402
76	0x3f8d8cca	1.105859
77	0x3d8c423e	0.06848572
78	0xc0109005	-2.2587903
79	0xbffa7acf	-1.9568728
80	0xbd510e58	-0.05103907
81	0x3f9132ed	1.1343666
82	0xbbd23d58	-0.006416004
83	0x40ac66d4	5.3875523
84	0x3f8ae5da	1.0851395
85	0xbd8756de	-0.066083655
86	0xbd5638a8	-0.052300125
87	0xc0814ef1	-4.0408864
88	0x3f8b75ae	1.0895288
89	0x3f8cfa4e	1.1013887
90	0x3f84e7bf	1.0383223
91	0xbd29e802	-0.041481026
92	0x3f84f6d8	1.0387831
93	0xbd249cd4	-0.040188625
94	0xbcb1ef9d	-0.021720702
95	0xbc100270	-0.008789644
96	0x3f8eae12	1.1146872
97	0xbd880be6	-0.066428944
98	0x3faa92c0	1.3326035
99	0x3fabc6c8	1.3420038
100	0x3d87384b	0.06602534
101	0xbc81b3fe	-0.015832897
102	0xbd385827	-0.045005944
103	0x3fc3da38	1.530097
104	0xbd1f4ebc	-0.038893446
105	0xbc80fb8b	-0.015744945
106	0xbfe26798	-1.7687864
107	0xbd455977	-0.048181023
108	0x3f8a41c3	1.0801319
109	0xbcc7ea92	-0.024403844
110	0xc00583e8	-2.086176
111	0x3f93a59c	1.1534915
112	0xc0c7f25a	-6.248334
113	0x3f9d10c6	1.2270744
114	0xc00657b3	-2.0991027
115	0xbd24cc40	-0.04023385
116	0x40dd8adb	6.9232
117	0xc00ea5cc	-2.2288694
118	0xbd2c1fb6	-0.04202243
119	0xbc984bbe	-0.018590804
120	0xbffff77a	-1.9997399
121	0x3f8776e2	1.0583155
122	0x3aa6d7f1	0.001272915
123	0x3f86e012	1.0537131
124	0xbd742399	-0.05960426
125	0x3f9a5b38	1.2059088
126	0xbfdbab9a	-1.7161744
127	0x3f847dfa	1.0350945
